model_weights.pth (torch, 462877 bytes, 31 tensors)

encoder.0.weight f4 [32, 1, 9]
000000 8a 09 4f be 5d e0 cf 3b 5b 30 07 3c e5 6c 95 bb
       -0.20218483 0.006343885 0.008251275 -0.0045601004
000010 58 13 70 3e d9 d7 a7 3e 4f dc 13 3e 92 ba a2 bc
       0.23444879 0.32781866 0.1443951 -0.019864354
000020 8b 72 4e be e2 f0 9a be 9f a0 d7 3d b7 7a 0c bd
       -0.20160882 -0.30261904 0.10528683 -0.034296717
000030 f9 35 21 be 12 d7 2a 3e 5a a5 15 be 02 3c 77 be
       -0.15743245 0.16683605 -0.14613858 -0.24143985
000040 a9 ca a5 bd c8 69 ac 3e 3d 25 7f bd 58 70 36 3e
       -0.08095295 0.33674455 -0.062291373 0.17816293
000050 41 9b 6f 3d eb 2e 2e 3e 01 15 a0 be 24 60 41 bd
       0.05849767 0.17010085 -0.31266025 -0.047210827
000060 e3 12 20 be a1 63 40 bd e1 ae 15 be a6 f4 73 3e
       -0.15632205 -0.046970014 -0.14617492 0.23823795
000070 ca a3 a3 3e ed 27 9e 3e 2a ed c1 bc 7e fe 7f bd
       0.319609 0.30889836 -0.023672659 -0.062498562
000080 11 ba 5e be 12 1d 86 bd 21 f8 ff 3d c0 71 25 3e
       -0.21750666 -0.065485135 0.12498499 0.16156673
000090 57 82 6a 3e 8c f0 96 3e 1e fc 89 3e 86 43 3e 3e
       0.22901283 0.29480398 0.26950163 0.18580446
0000a0 13 0b 25 be ea c7 94 3e dc dc 04 be 2a 79 de 3d
       -0.16117506 0.29058772 -0.12974876 0.10862954
0000b0 88 42 ab ba e0 55 94 3e fa a4 67 3e a0 e5 8e 3e
       -0.0013066093 0.28971767 0.22621527 0.27909565
0000c0 72 25 96 3e fc 3f 89 bd bf 2a b8 bb 9a 44 a5 3e
       0.29325444 -0.06701657 -0.00562033 0.322789
0000d0 77 50 26 be b0 7f 32 bd f2 3a 31 3e 00 48 f9 3d
       -0.16241632 -0.043578804 0.17307642 0.12171936
0000e0 e4 57 c7 3d f0 d4 08 3e 80 9d be 3c d0 41 cf 3c
       0.09733561 0.13362479 0.023268461 0.025299937
0000f0 a8 46 4b bd a8 aa 19 3e e0 13 2a 3c 3f ed be bd
       -0.04962793 0.15006506 0.010380715 -0.09322595
000100 51 33 9f 3e 93 f6 1f be bc 39 99 be fb f3 81 be
       0.3109384 -0.15621404 -0.2992686 -0.25381455
000110 5c de 41 be 01 b8 55 be b0 58 c1 bc cc 16 d2 bc
       -0.1893248 -0.20870973 -0.02360186 -0.025645636
000120 2a 32 0f 3e fa 2f 94 bd f1 24 1c 3e 23 d8 b2 bc
       0.1398398 -0.07235713 0.15248467 -0.021831578
000130 bc 59 91 be 24 b9 1f be 98 35 99 3e 4d 51 99 3c
       -0.28388774 -0.1559797 0.299237 0.018715525
000140 03 ed 03 3e f2 44 83 3e d8 64 97 3c 04 d8 00 bd
       0.12883382 0.2563854 0.018480703 -0.03145601
000150 cf 3b 48 3e 86 ff f8 bc c1 d0 98 bd 6b cc 7b be
       0.19554065 -0.03039528 -0.07461692 -0.24589698
000160 b6 01 98 be e5 c3 ec bd 1b 6d 28 3e a8 9e 70 3e
       -0.29688805 -0.115608014 0.1644787 0.23498023
000170 03 cf ca 3c 1a 26 87 3e 7a a9 a5 3d fd 2f 81 bd
       0.024756914 0.26396257 0.08088966 -0.06307981
000180 31 3b a9 3d 3f 11 1f bd 69 c1 9d 3e e4 95 49 3d
       0.08263243 -0.038834807 0.30811623 0.049215212
000190 5d 4f e9 bd 29 a6 62 be f8 11 90 be 07 89 44 39
       -0.113920905 -0.22133698 -0.2813871 0.00018743063
0001a0 7a cb 71 3d 08 16 41 3e 45 2f 61 3d 0b e6 58 3e
       0.05903194 0.1885606 0.05497672 0.21181504
0001b0 94 34 9a be 60 1f 19 be e6 59 96 bc e0 dc 63 be
       -0.3011824 -0.14953375 -0.018353414 -0.22252226
0001c0 49 12 82 bd e8 6b 19 3e b5 91 16 3c e0 49 99 3e
       -0.06351144 0.14982569 0.009190013 0.29939175
0001d0 d2 55 84 3e 65 33 39 be 6c 87 19 bd 29 3c a4 3e
       0.25846726 -0.18086012 -0.037482664 0.3207715
0001e0 74 12 73 3e 9c 00 2d 3e 6c 15 b7 3c a8 78 09 bc
       0.23737508 0.16894764 0.022349082 -0.008390583
0001f0 e1 e6 7a 3b 66 a5 01 3e 15 cd 8e 3e c9 de 24 be
       0.0038284587 0.12660751 0.2789084 -0.16100611
000200 a0 65 11 3e f8 c5 ed 3c fd d9 7c 3e a3 b4 52 3e
       0.14198923 0.029025063 0.24692531 0.2057672
000210 98 f4 5c 3d 88 b1 86 be 04 26 ce bd 51 68 96 3e
       0.0539442 -0.2630732 -0.10065845 0.29376462
000220 7b 4b 3b 3e 51 37 a4 be 01 4f 25 3e 28 19 1b 3e
       0.18290512 -0.32073453 0.16143419 0.15146315
000230 8a ba 6b bd c4 57 42 be fd ed ed 3c d5 3a 93 be
       -0.057550944 -0.18978792 0.029044146 -0.28755823
000240 e1 2c 5f 3e b9 6f 83 3d cf 53 16 3e bd 11 c2 3d
       0.21794464 0.06417794 0.14680408 0.094760396
000250 90 69 3d 3e 8e 7a 46 be 0b b9 90 bc ba 43 f8 bd
       0.184973 -0.19382688 -0.01766636 -0.12122293
000260 57 0f 08 bd 15 87 19 3e 2b bb 32 be f3 ba 94 3d
       -0.033217754 0.14992936 -0.17454211 0.0726222
000270 ac a4 a8 bd 46 06 47 be 67 9b bf 3c 3e d9 9b be
       -0.08234534 -0.19435987 0.023389531 -0.3043918
000280 3f b5 d4 3c 03 0d 02 be 47 d7 3b be 94 f1 92 be
       0.025965331 -0.12700276 -0.1834384 -0.28699934
000290 d0 39 58 3e f9 b4 48 3e 81 fa 50 3d 50 9f ec bc
       0.21115804 0.19600286 0.05102015 -0.02888456
0002a0 16 97 5a 3d fe 4d 9b 3e 24 bd a9 3e 45 fe 29 3e
       0.053366743 0.3033294 0.33152115 0.16600902
0002b0 33 d2 52 bd 76 ba 57 3e e9 ad 04 bd ed 12 05 3e
       -0.051469993 0.21067223 -0.032392416 0.12995501
0002c0 d9 4e 10 3c 86 9d 8f 3e be 83 73 be 62 ed 88 be
       0.008807861 0.28049868 -0.23780724 -0.2674361
0002d0 a5 1d 15 be 78 7f 52 be ae a5 ef 3d 25 8c 88 3e
       -0.1456209 -0.20556438 0.11701523 0.26669422
0002e0 be 06 06 be b8 54 17 3b 94 b0 6b bd ec c0 2c be
       -0.1308851 0.0023091268 -0.057541445 -0.16870469
0002f0 ef d6 f5 3d 87 70 fe 3d 35 d0 f6 bd 73 c3 49 bd
       0.12003886 0.12423807 -0.12051431 -0.04925866
000300 9f 68 4a be 71 da 88 3e 4c 44 9e 3e b7 90 9f 3e
       -0.19766472 0.26729158 0.3091148 0.31165096
000310 1c 54 db 3d 79 12 99 3c 21 a1 25 3e cd 72 09 3e
       0.10709402 0.018685566 0.16174747 0.134227
000320 c2 ff 88 bd 0e 27 56 be 28 62 07 3c be af 27 be
       -0.06689407 -0.20913336 0.008263148 -0.16375634
000330 97 94 86 be d5 ef 96 3e 0f 10 07 3e f7 08 54 3d
       -0.2628524 0.29479852 0.1318972 0.051766362
000340 a3 c3 61 be 44 a1 3e be b3 8a d2 3d b6 eb e5 3c
       -0.22047286 -0.18616205 0.10280361 0.028066497
000350 9c c4 8c bd 0a d6 6d be 82 5f cc 3d 03 2b 9c 3e
       -0.06873438 -0.2322618 0.09979154 0.30501565
000360 d9 80 72 be f5 47 10 3e a1 64 88 3d 14 30 8d be
       -0.23681964 0.1408995 0.066598184 -0.27575743
000370 32 a5 ee 3d a0 1f 39 3e 73 46 8a 3e 68 d4 cb bd
       0.11652602 0.1807847 0.27006873 -0.09952623
000380 67 c5 13 be e1 08 ba bd 58 34 cb 3d 63 d7 97 3e
       -0.14430772 -0.09083725 0.09922093 0.29656515
000390 7f 77 06 be 84 f9 5f be 39 52 20 3e b3 9e 48 3d
       -0.13131522 -0.21872526 0.15656365 0.048979472
0003a0 18 dd 6c bd a5 6e 83 be 20 cf 8a be 1c b9 96 3e
       -0.05782804 -0.25670353 -0.2711115 0.29438102
0003b0 bc ba 92 3e 10 f4 08 3e c1 1c 7a bc fd a5 f9 3d
       0.28658092 0.13374352 -0.0152656445 0.12189863
0003c0 33 3c 1a be b7 4d a4 3e 5c e5 0c 3e 99 03 76 3e
       -0.15062027 0.32090542 0.13759369 0.2402481
0003d0 4e 31 8f bd 00 7f 9b bb db f7 91 3b d2 d7 c7 bd
       -0.06991826 -0.004745364 0.0044545955 -0.09757961
0003e0 9a 85 58 3e b4 9f 50 3e df 7c 67 3e ef 0c 7c 3e
       0.21144715 0.20373422 0.22606228 0.24614309
0003f0 0a bc 7b be 4b ca 4a be 44 b9 17 3e c2 f7 a6 3e
       -0.2458345 -0.19803731 0.14816767 0.326109

encoder.0.bias f4 [32]
000000 32 cc a1 be 7e 02 dd bc 40 84 6a 3e f3 36 28 be
       -0.316011 -0.026978727 0.22902012 -0.16427211
000010 86 aa ec 3d d3 f8 49 bd 57 b0 a8 be 27 e8 54 3d
       0.11555962 -0.049309563 -0.32947037 0.05197921
000020 32 8c 78 be ed 0f 8d 3e 69 ef 3b 3e bd 90 24 be
       -0.2427223 0.27551213 0.18353046 -0.16070838
000030 d9 3d 28 be 11 52 0b 3e db c1 e5 bd 54 fe cb 3d
       -0.16429843 0.13605525 -0.112186156 0.099606186
000040 c0 b9 f0 bd b6 2c 1b bd a4 fc 81 3e 49 33 70 3d
       -0.11754179 -0.037884437 0.25388062 0.05864266
000050 11 34 9a 3e 91 e3 83 be db 92 a7 3e b7 94 13 3e
       0.3011785 -0.25759557 0.3272923 0.14412199
000060 ab 28 8a 3c f4 98 53 3e ec ec 97 be a6 87 44 3e
       0.016865095 0.20663816 -0.29672945 0.19192371
000070 ba 33 87 be 72 b9 aa 3d e6 49 f2 bd 3a 34 d3 3d
       -0.26406652 0.08336152 -0.11830501 0.10312696

encoder.2.weight f4 [32]
000000 59 d9 81 3f dd 9a 80 3f 12 4b 7e 3f 78 f3 80 3f
       1.0144454 1.004726 0.993333 1.0074301
000010 ce 85 80 3f 23 52 80 3f 00 00 80 3f 0f 95 7f 3f
       1.0040834 1.0025066 1.0 0.9983682
000020 d6 ad 7f 3f f6 e7 7f 3f 90 51 7d 3f b1 e5 80 3f
       0.9987463 0.9996332 0.9895258 1.0070096
000030 46 26 7a 3f b4 ff 7e 3f 27 da 81 3f 79 ee 80 3f
       0.9771465 0.9960892 1.01447 1.0072776
000040 a0 0d 80 3f 41 f3 80 3f 64 48 7e 3f 30 db 7f 3f
       1.0004158 1.0074235 0.9932921 0.9994383
000050 ad cb 80 3f 08 ad 7f 3f ce 7f 7e 3f 9c c3 7e 3f
       1.0062157 0.998734 0.99413764 0.99517226
000060 a7 e1 7f 3f 1a f9 7e 3f ce dc 7d 3f 14 3d 80 3f
       0.99953693 0.9959885 0.99165046 1.001864
000070 30 5d 81 3f bf 8d 80 3f 70 8c 81 3f 26 9d 7e 3f
       1.0106564 1.0043257 1.0120983 0.9945854

encoder.2.bias f4 [32]
000000 df 11 2e 3b fc 91 16 bb a2 10 8f bb 0d 86 86 bb
       0.0026560945 -0.0022975197 -0.0043659965 -0.0041053356
000010 9d 95 6b 3c 82 c9 54 3c 1f 77 93 3b cb 5a 8c bb
       0.014378932 0.012987496 0.0045002843 -0.0042832843
000020 af a5 8a 3c 36 82 90 3c 2c b9 d9 3b 3e f9 b2 3a
       0.016924707 0.017640214 0.0066443887 0.0013654602
000030 5f 4f 69 3b 3c cc 85 bb 7c 38 86 bb 34 de 74 3c
       0.0035600287 -0.0040831845 -0.004096089 0.0149455555
000040 45 be ba ba 46 49 6b 3b a3 f9 f9 3b d5 63 fc bb
       -0.0014247379 0.0035901829 0.007628636 -0.0077023306
000050 21 67 4d ba de 19 5d bb e3 3d 5e 3b c4 76 28 3c
       -0.0007835497 -0.0033737342 0.00339114 0.010282222
000060 f6 c4 c9 3b 86 72 a1 ba 20 4e da bb f6 57 04 3c
       0.006157513 -0.0012317456 -0.0066621453 0.008077612
000070 52 3f df 3b 75 c4 d0 3b b3 cf 82 3c f7 07 af bb
       0.0068129683 0.0063710758 0.01596818 -0.0053415257

encoder.2.running_mean f4 [32]
000000 ab 28 0a 38 8b ee 17 3d 30 2c 6a 3e 29 a3 b3 3b
       3.293964e-05 0.037092727 0.22868419 0.0054820967
000010 dc a4 05 3e 4f 60 0e 3d 00 00 00 00 19 11 a5 3d
       0.1305117 0.034759816 0.0 0.08059902
000020 2d 13 cc 39 51 19 8d 3e 97 04 3f 3e 02 bc 15 3b
       0.000389242 0.27558377 0.18654095 0.0022847657
000030 df c5 a6 3b b4 fd 10 3e 50 73 2a 3c 3f bc ef 3d
       0.005089506 0.1415928 0.010403469 0.11705827
000040 a0 b7 5b 3b cb a8 b6 3c f9 2d 83 3e fe e5 a4 3d
       0.0033526197 0.022297284 0.25621012 0.0805168
000050 c4 01 9a 3e 41 dc 64 3a a7 16 a8 3e fb 42 17 3e
       0.30079472 0.000873033 0.32829782 0.14771645
000060 39 90 61 3d 1a 8f 55 3e 9b ba 33 3a 4c d7 47 3e
       0.055069182 0.2085537 0.00068561145 0.19515723
000070 a0 95 a1 3a 08 98 c8 3d 87 41 1a 3c 8e 15 f9 3d
       0.0012327917 0.09794623 0.009415037 0.12162314

encoder.2.running_var f4 [32]
000000 e4 07 eb 37 c0 54 83 3b 47 7d 19 3c 75 c3 12 3a
       2.8017857e-05 0.0040079057 0.009368247 0.00055985834
000010 73 31 4a 3c fe 46 89 3b 05 d0 de 37 2c cf 07 3c
       0.012340891 0.004189371 2.6561329e-05 0.00828914
000020 c6 b0 58 38 07 88 42 3c b4 a4 34 3c 84 b3 49 39
       5.1663046e-05 0.011873252 0.011025596 0.00019235729
000030 05 34 04 3a bd 12 12 3c 75 a7 85 3a bb 7e 3c 3c
       0.0005043152 0.0089156 0.0010197001 0.011504824
000040 7b 42 7d 39 25 69 fa 3a cd 08 8a 3c 59 46 ee 3b
       0.00024152726 0.0019104822 0.0168499 0.0072715697
000050 b5 0d 16 3c a3 0c d2 38 45 49 4f 3c e5 cc 1d 3c
       0.009158541 0.00010015934 0.012651746 0.00963137
000060 35 dd af 3b 9e 6f 36 3c 8a 97 b4 38 29 91 37 3c
       0.005366946 0.01113501 8.611295e-05 0.0112040425
000070 0a a8 16 39 9d 24 06 3c ec 24 70 3a 82 ff 51 3c
       0.00014367714 0.00818744 0.0009160775 0.0128172655

encoder.3.weight f4 [64, 32, 7]
000000 dc 3f b5 bc e8 46 85 3d 0d b6 da 3c 8a ac 95 bd
       -0.022125177 0.06507665 0.026698137 -0.073083
000010 8e 7f ad bd 49 7a c2 ba 1c 6d 1e 3d 72 06 93 bd
       -0.08471595 -0.0014837469 0.038678274 -0.07178964
000020 11 aa c4 3b f9 c9 63 bb a7 89 72 bd 6d 46 dd bc
       0.006001719 -0.0034757836 -0.059213307 -0.02701112
000030 9e 9a dc bc 97 f8 1b 3d ce 54 6e bc be 99 13 3d
       -0.026929196 0.03807887 -0.014546586 0.03603529
000040 e0 7d 47 bd 6c 55 81 bc e4 b8 81 3d cd a7 de bb
       -0.048704028 -0.015787803 0.06334093 -0.0067949058
000050 68 78 31 3d 90 07 3e 3d dc b1 86 3b 80 ca 6c bd
       0.04332772 0.04639393 0.004110558 -0.057810307
000060 4f e5 fa 3c 71 17 92 3d 83 86 31 3c 22 06 55 3d
       0.030626921 0.07133377 0.010835293 0.0520078
000070 ea 8b a4 3d 5a c0 ba 3b 55 15 9d 3c 9a f5 cf bb
       0.08034499 0.0056991996 0.019175211 -0.0063464167
000080 05 7d 3e bd ce f5 f3 bc 49 77 35 3d 88 5b 18 3c
       -0.046505947 -0.029780295 0.044303212 0.0092991665
000090 91 c1 7b 3d 8b e8 a3 bc f3 5a 41 bc 4c b2 fe 3c
       0.061463896 -0.020008346 -0.011801469 0.031090878
0000a0 9e b1 9a bc c5 c7 14 3d be c0 87 3c 5c 05 1f bd
       -0.018883523 0.036323328 0.016571399 -0.03882347
0000b0 57 06 85 3c bb a0 0b bd 3c 76 2d 3d 40 54 15 bd
       0.016238375 -0.03408883 0.042349085 -0.0364573
0000c0 c3 22 60 bc 46 8d 36 bc 0a 4e 56 3d 99 51 17 bd
       -0.013680163 -0.011142081 0.052320518 -0.036943052
0000d0 d0 1d 49 3d 99 c2 4a 3d 24 99 18 bd b0 4a c3 3c
       0.049100697 0.04950199 -0.03725542 0.023839325
0000e0 64 cc c2 bb f4 c7 2e 39 a1 da 78 3d dc e4 13 bd
       -0.0059447754 0.00016668421 0.060755376 -0.03610693
0000f0 0d 84 20 bd 8f 1c 43 bd 49 06 05 3d d3 55 a9 bc
       -0.039188433 -0.047634657 0.032476697 -0.020670807
000100 98 50 b2 bc 92 5d a1 3c 12 39 03 bc 58 94 2f bd
       -0.021766946 0.019697938 -0.008009212 -0.04286608
000110 38 65 7f 3a 75 ab 61 bd bc c2 19 3d b4 42 81 bc
       0.0009742561 -0.055095155 0.03753923 -0.015778877
000120 30 99 5a bd f7 0b 69 bc 4f 86 5b bd c1 33 1a 3d
       -0.053368747 -0.014224044 -0.053594884 0.037647013
000130 06 e4 87 3c 15 da cd bc 28 6d 8a 3c 01 22 65 3d
       0.016588222 -0.025128404 0.016897753 0.05594063
000140 6c a3 dc 3c 11 9c 77 3c 06 cb 13 3d e7 5c 28 bc
       0.026933394 0.015112893 0.03608229 -0.010276056
000150 c4 d6 21 3d 0f 32 1d 3c 0c 4f 5d bc 6e 4b 76 bd
       0.039511457 0.009594454 -0.013507616 -0.06013053
000160 17 b3 78 bd 4c 6f 57 3d a9 f6 08 3d b3 7f 13 bd
       -0.06071767 0.052596375 0.03343836 -0.036010455
000170 b9 5a 8b 3d 7f b8 b9 3c ea af 42 bd f5 8b 13 3d
       0.06804413 0.022670982 -0.047531046 0.036022145
000180 03 82 e1 3c 9e 4a 34 3d 42 7f 59 bd 4e 6a 78 bd
       0.027527815 0.044016473 -0.053099878 -0.060648255
000190 0d e2 0b 3c 2e a5 00 3c d8 99 a5 bc 8b 28 21 bd
       0.008537781 0.007851882 -0.02021496 -0.039345305
0001a0 a6 32 0d 3c 85 ad f7 3c a9 85 76 3b bd da 83 3d
       0.008618033 0.030234108 0.0037616289 0.064382054
0001b0 2b 7c 33 3d 26 4f 31 3d 88 77 14 bb c2 2d 3b 3c
       0.043819588 0.043288372 -0.0022654254 0.011424484
0001c0 05 42 9e 3d ec cb 4d bd ec fe 04 bd 9c d5 98 bc
       0.07727436 -0.050243303 -0.032469675 -0.018656544
0001d0 fa f4 0b bd 79 f0 80 bd 7a 68 1d bd 9d 3e 9d 3c
       -0.034169175 -0.062958665 -0.038429715 0.019194895
0001e0 e5 31 6d 3d d7 3b 44 bd c2 ec 90 3d 67 f5 38 3d
       0.05790891 -0.04790863 0.07076408 0.04515591
0001f0 ca 6a aa bd 00 56 37 3c 1e d6 94 bd 2e 8e dd ba
       -0.0832115 0.011189938 -0.07267402 -0.0016903335
000200 95 91 99 bd 05 45 fe bb 19 20 34 3d a0 b7 a6 3c
       -0.07498471 -0.0077596926 0.043975923 0.020351231
000210 d1 9a 56 3d 11 63 f2 3c d4 13 7c bd 25 a1 76 3d
       0.05239374 0.029588254 -0.061542347 0.060212273
000220 b5 71 0c 3d e6 fa 0a 3c e2 58 7d bd d7 c9 5f bd
       0.034288127 0.00848267 -0.061852343 -0.05463585
000230 8c 5e 30 bd 7e 00 4c bd 3f d3 b9 3c 48 ce 91 3c
       -0.043058917 -0.049805157 0.022683738 0.017798558
000240 0a f2 f2 3c 12 10 7b bd d8 57 69 bd 6f 10 07 bd
       0.029656429 -0.061294623 -0.05696854 -0.032974657
000250 fa bd 69 3c 66 06 1d bd f3 99 c1 3c bb f3 5f bc
       0.014266485 -0.03833618 0.023632979 -0.01366895
000260 28 9d c6 3a 1e cd c9 3c e6 d5 fe ba 2f 50 3b bc
       0.0015153037 0.02463394 -0.0019442409 -0.0114326915
000270 58 e6 af 3a 17 39 a6 3c 2e a3 0d bd 4a 0d 02 3d
       0.0013420088 0.020290894 -0.03457945 0.031750955
000280 5a 29 78 3d b5 90 43 3c c1 b4 07 3d 21 49 69 bd
       0.06058631 0.011936356 0.033131365 -0.056954507
000290 ad 95 5e 3c bc ee e2 3b f4 0c 41 bc ce 66 88 bd
       0.01358549 0.006925432 -0.011782873 -0.066602334
0002a0 c3 81 44 3c 07 f8 bd 3c 1a 0e b6 3c 2b a1 87 bd
       0.011993828 0.023189558 0.022223521 -0.06622537
0002b0 42 94 46 bc 8d 3f 8d 3b 18 b4 84 3d 72 df 87 3d
       -0.012120308 0.0043105544 0.06479663 0.06634416
0002c0 8a 26 08 3c 90 c3 40 3d 35 47 e0 bc 65 d7 16 3d
       0.00830997 0.047061503 -0.027377704 0.03682651
0002d0 69 a5 8e bd b2 2b 18 3d 33 fe 83 bc 2d 07 b7 bb
       -0.06965143 0.037151046 -0.016112423 -0.005585572
0002e0 fb e4 0f 3d c8 26 77 3d fe 0a 45 3d 7b 72 73 3d
       0.035130482 0.06033972 0.048106186 0.05943535
0002f0 b8 82 71 bd 0f 30 c3 bc 0b a0 5f bb 59 83 79 3d
       -0.058962554 -0.023826627 -0.0034122493 0.06091628
000300 2a 8e eb 3c 56 10 a4 ba 37 a3 92 3d 86 2c d4 3c
       0.028754313 -0.0012517076 0.07160037 0.025900137
000310 e6 a7 21 bd c4 e1 ed bc fa bd 5e 3d 5f 7c f2 3c
       -0.03946676 -0.029038318 0.054380395 0.02960032
000320 d2 75 4b bc 65 90 56 bd 7a 0c e7 3c a9 55 2c 3d
       -0.012418227 -0.0523838 0.028204191 0.04207388
000330 9d d5 73 bd fd 8c 00 3d b7 ac 32 bd e8 90 fa bb
       -0.05952989 0.031384457 -0.043621745 -0.0076466687
000340 5a cc 8e bc 74 78 2a 3d 80 b1 d0 bc 4c 35 56 3d
       -0.017431427 0.04161878 -0.025475264 0.05229692
000350 89 d2 5d 3d e0 cf 37 bd 56 3f 5d bd f8 40 10 bd
       0.05415586 -0.04487598 -0.05401548 -0.03521821
000360 c5 57 8b 3b 65 0f 5a bd 15 b5 20 3d bb 16 05 bb
       0.0042524063 -0.053237338 0.039235193 -0.0020307738
000370 24 b3 9a bc 2f 61 52 bd 87 82 66 3d 48 2d 97 3c
       -0.018884249 -0.051362213 0.056276824 0.018454209
000380 0e 3c 12 bd 82 a7 f8 3c e2 8d 41 bc 9a 96 17 3d
       -0.035701804 0.030353311 -0.011813613 0.03700886
000390 48 fd 31 3d c2 77 c9 bc 52 3d 6d bb 50 b2 a3 3c
       0.04345444 -0.024593238 -0.003619988 0.019982487
0003a0 ba 1b b2 bc cf fa 68 3c e9 f2 c3 3c 58 37 dd 3c
       -0.021741737 0.014219954 0.02391954 0.027003929
0003b0 2a c6 81 bd 72 17 61 bd 0a 2a a4 bc 01 f1 dd bc
       -0.06336625 -0.054954 -0.020039577 -0.027092459
0003c0 b8 91 0b bb ae 5c 84 bd 7e 56 58 bd e6 71 62 bd
       -0.0021296572 -0.0646299 -0.05281686 -0.055284403
0003d0 a6 e1 96 bc 06 c2 0a bd 3c 12 98 bc b2 1f 33 3d
       -0.018418144 -0.03387644 -0.018563382 0.0437314
0003e0 a9 69 3c 3d 23 cc 67 bd 70 b0 e1 3c a7 55 11 bd
       0.045999203 -0.056591164 0.027549952 -0.035482075
0003f0 3f 5d 32 3d b1 ec 4f bd 31 e8 bb bc 9b da db bc
       0.043545958 -0.050762836 -0.022937866 -0.026837638

encoder.3.bias f4 [64]
000000 90 82 7f bd b7 83 cd 3c 66 e1 d8 bc 1d 92 ae 3c
       -0.062380373 0.02508722 -0.026474666 0.021309907
000010 f1 b6 8a bc d6 67 48 3d 40 8a e5 3c 42 73 89 3d
       -0.016932936 0.04892715 0.028020024 0.06711437
000020 54 fe 2e 3d 05 8d eb 3c cf fe c9 bc 3b ba 80 3d
       0.042723015 0.028753767 -0.024657635 0.06285521
000030 a1 1e a4 3c 75 a6 5c 3c 99 da b5 3c 4c 19 41 bd
       0.020034136 0.013467421 0.022198962 -0.047143266
000040 a8 68 ed 3b 9f 4c e9 bc cb 89 9e bd 6b a1 1a 3d
       0.007245142 -0.028478919 -0.07741126 0.037751596
000050 57 a5 5b 3c 63 41 f0 bc 26 b7 97 3c aa f9 f7 3c
       0.013406119 -0.029328054 0.01851995 0.030270416
000060 33 16 31 bd af dd 94 bd e3 5f 4f 3d c9 f1 ce bc
       -0.04323406 -0.07268845 0.050628554 -0.025261777
000070 2d 15 15 bd 33 bf 53 bc 4b 2d f5 bc 51 08 53 3c
       -0.036397148 -0.012924003 -0.029928824 0.012880401
000080 77 7e 3c 3d 37 14 4d bd 90 da 49 3d 7a 76 5b 3d
       0.046019044 -0.050068107 0.049280703 0.053579785
000090 13 81 67 bd a5 5d 37 bb a2 93 cb 3c 07 23 f7 3c
       -0.05651958 -0.00279794 0.02485067 0.03016807
0000a0 64 58 fa bc b9 e5 f6 bc 70 85 82 bd a4 89 8a bd
       -0.030559726 -0.030138837 -0.063731074 -0.06764534
0000b0 94 b6 1b 3d fd ee ea 3c 02 93 a7 ba 9c c9 c7 bc
       0.038015917 0.028678412 -0.0012784901 -0.024388127
0000c0 6c 46 70 bd fc 7f 80 bd bd 98 8a bd 13 a2 e3 bc
       -0.05866091 -0.06274411 -0.06767414 -0.027787244
0000d0 c9 33 9a bd 8c 6f 6a bd 4d 63 2b bc 01 40 91 3c
       -0.075294085 -0.057235286 -0.010460687 0.017730715
0000e0 fb 54 50 bd 05 95 57 3c 6a b0 3c bd 1c b6 9b 3c
       -0.050862294 0.013158088 -0.04606668 0.019007735
0000f0 b2 1a d8 3c 65 ef 2e bb b1 95 d3 3c 91 b2 6c bd
       0.026379917 -0.0026692983 0.025828214 -0.05778748

encoder.5.weight f4 [64]
000000 8c 11 7e 3f ac 6d 81 3f 7a db 7c 3f ac 10 82 3f
       0.99245524 1.0111594 0.98772395 1.0161338
000010 b5 40 7e 3f a9 91 81 3f 98 51 7c 3f 66 a1 80 3f
       0.99317485 1.0122577 0.98562 1.0049255
000020 02 b4 7e 3f 87 05 7d 3f 13 91 7d 3f d5 9a 7f 3f
       0.9949342 0.9883656 0.9904949 0.9984563
000030 72 a5 82 3f 7c 8c 80 3f 90 1b 7e 3f c5 38 80 3f
       1.020674 1.0042872 0.9926081 1.0017325
000040 b0 e6 7e 3f 3f 79 7d 3f 6d 05 81 3f d9 9e 7f 3f
       0.9957075 0.9901313 1.0079781 0.9985176
000050 82 20 7e 3f a8 83 7e 3f 1f f9 7d 3f ef c9 7e 3f
       0.99268353 0.9941964 0.99208254 0.99526876
000060 51 2e 81 3f 20 23 80 3f d7 53 81 3f 17 cd 80 3f
       1.009226 1.0010719 1.0103711 1.0062588
000070 e7 d5 81 3f d6 1c 81 3f bf e8 80 3f 42 50 7d 3f
       1.0143403 1.0086925 1.0071028 0.9895059
000080 de c1 80 3f fa 1f 7e 3f 5d c5 7f 3f 96 de 7f 3f
       1.0059164 0.9926754 0.9991053 0.99949014
000090 95 13 80 3f 84 28 80 3f de d8 80 3f b8 54 80 3f
       1.0005976 1.0012364 1.0066183 1.0025854
0000a0 96 7c 80 3f ff 22 81 3f 58 6c 7c 3f 33 f9 81 3f
       1.0038021 1.0088805 0.9860282 1.0154175
0000b0 64 2b 7d 3f 77 05 7e 3f e2 4a 7e 3f fb cf 7b 3f
       0.98894334 0.9922709 0.9933301 0.9836423
0000c0 0f 29 7e 3f e3 f3 7c 3f 38 d6 7f 3f 1d 79 7e 3f
       0.992814 0.9880964 0.99936247 0.99403554
0000d0 08 d3 80 3f fe 72 81 3f 54 63 7d 3f be 5b 7e 3f
       1.0064402 1.0113218 0.9897969 0.9935874
0000e0 79 09 81 3f 4b 0f 80 3f de 2f 7f 3f f6 65 80 3f
       1.0081016 1.0004667 0.99682415 1.0031116
0000f0 b5 1e 7f 3f 18 72 81 3f d7 32 81 3f 72 a0 80 3f
       0.9965623 1.0112944 1.009364 1.0048964

encoder.5.bias f4 [64]
000000 e9 a5 1d 3a 01 b7 ce 3a 28 de b8 3c f4 5f 9f bc
       0.0006013797 0.0015771092 0.02256687 -0.019454934
000010 dc e1 29 3c aa f8 05 3a 05 f3 6a bc b7 07 9b 3c
       0.0103687905 0.0005110601 -0.014340167 0.018924577
000020 21 f7 aa 3b 8a 6d ed 3a 12 e6 39 bc 49 36 a8 3c
       0.0052174483 0.001811431 -0.011346357 0.020533698
000030 bd 7f 1e bb 02 a5 46 bc 2c ef 22 bc 48 c6 a9 3c
       -0.0024185025 -0.012124302 -0.009944718 0.02072443
000040 0d f9 3a 3a 16 4c 67 3c dc 9e 66 3c 7e 95 30 bb
       0.00071324484 0.014117261 0.014075961 -0.0026944573
000050 db 53 e5 3a dd 8b 3c bc 1e dc 5d 3c 29 60 6a 3c
       0.0017496304 -0.011507955 0.01354125 0.014305153
000060 fd 29 25 3b 6b 47 a9 3c a0 da 0a 3c 5d 10 69 3b
       0.002520203 0.020663938 0.008474976 0.0035562732
000070 b4 13 19 3b a9 61 8c 3c e1 7c e8 3a 0f 4f 82 bb
       0.0023357691 0.017136412 0.0017737412 -0.0039767097
000080 83 ff a8 3b 1b c7 b2 3c e9 ed 55 bb 9d eb 28 3c
       0.0051574125 0.021823457 -0.0032643026 0.010310081
000090 1d e0 fe 3b 64 6c 4f 3c 63 ed 5b 3b 32 f2 5f bb
       0.007778181 0.01266012 0.0033558242 -0.003417146
0000a0 2f 85 a1 3c 4d b4 93 3c fe f6 c2 bb 79 00 44 3b
       0.019716827 0.01803031 -0.005949854 0.0029907508
0000b0 2c 41 c3 bc 8c 12 d5 3b c9 2e 3d 3c a7 13 b6 3c
       -0.023834787 0.006502455 0.011546799 0.022226168
0000c0 73 cd 8a 3c eb de c5 3c 75 40 00 bc a4 cb 00 bc
       0.016943669 0.024154147 -0.007827868 -0.007861052
0000d0 be cc 1f 3c d5 b4 28 bc 52 0a 93 3c c3 32 53 bc
       0.009753404 -0.01029702 0.017949257 -0.0128905205
0000e0 5e b6 bc 3b 19 59 62 ba e7 78 bd 3c dd ce 20 bc
       0.0057590446 -0.00086344924 0.02312894 -0.009814945
0000f0 db ee 95 bc f8 64 08 bb 2b dd 7b 3c c3 2c b5 3c
       -0.018302372 -0.0020812135 0.015372555 0.02211607

encoder.5.running_mean f4 [64]
000000 9d 7c 73 3e bd ba 6b 3e 46 25 59 3e 70 df 77 3e
       0.23778005 0.23020454 0.21205625 0.24206328
000010 92 db 6f 3e 4d 9f 4e 3e 88 8c 5c 3e 64 a8 80 3e
       0.23423603 0.20177956 0.21537983 0.25128472
000020 83 a9 84 3e 77 a0 6e 3e 32 d8 44 3e 41 b4 70 3e
       0.25910577 0.233034 0.19223097 0.23506261
000030 16 4a 36 3e 42 45 5f 3e 1d 45 70 3e 43 10 47 3e
       0.17801699 0.21803764 0.23463865 0.19439797
000040 92 d2 2a 3e 58 c4 6b 3e 11 cc 18 3e f8 b8 8b 3e
       0.16681889 0.23024118 0.14921595 0.27289557
000050 a1 3a 57 3e 39 e8 63 3e 82 2f 86 3e 7b d3 79 3e
       0.21018459 0.22256555 0.2620812 0.2439708
000060 85 27 3b 3e da 85 30 3e 4e 68 75 3e 4d c0 4d 3e
       0.18276794 0.1723856 0.2396557 0.20092888
000070 a8 31 42 3e 85 a8 4c 3e 4f e9 36 3e c9 b2 65 3e
       0.18964255 0.1998616 0.17862438 0.22431482
000080 5d 94 8b 3e d0 e6 69 3e 8e 50 5b 3e fb 2e 90 3e
       0.2726163 0.22841954 0.21417448 0.28160843
000090 48 c6 3c 3e ba a0 49 3e 59 5b 8e 3e 77 0a 8f 3e
       0.18435013 0.19690219 0.27804068 0.27937672
0000a0 99 cf 85 3e 0f 1f 60 3e e1 33 5b 3e e7 c7 81 3e
       0.26134947 0.21886848 0.21406509 0.25347826
0000b0 dc eb 7f 3e f0 5f 8c 3e b4 14 55 3e fa bd 6b 3e
       0.24992317 0.27416945 0.20808679 0.23021689
0000c0 0a f8 57 3e 0b ea 5d 3e 44 ff 26 3e 67 8c 81 3e
       0.21090713 0.21671312 0.16308314 0.2530243
0000d0 c4 60 34 3e 6c 05 4d 3e eb c8 74 3e bf 9a 9e 3e
       0.17615038 0.200216 0.23904769 0.30977437
0000e0 e4 87 67 3e 0b 98 58 3e 73 4a 63 3e ca fe 65 3e
       0.22610432 0.2115175 0.22196369 0.22460476
0000f0 59 19 43 3e 52 64 6c 3e 6d 83 76 3e 98 41 89 3e
       0.19052638 0.23085144 0.24073572 0.26807857

encoder.5.running_var f4 [64]
000000 25 cd 14 3e 44 6d e5 3d 48 31 f8 3d 55 50 f1 3d
       0.14531381 0.112024814 0.12118775 0.117829
000010 49 93 13 3e a7 3e b0 3d ae 99 cb 3d 4f d3 05 3e
       0.14411654 0.086057 0.099414214 0.13068889
000020 fc 71 eb 3d 2f 03 fc 3d 4d 07 ad 3d 58 10 02 3e
       0.1149635 0.12305295 0.08448658 0.12701547
000030 5e 6d 93 3d ce 07 dc 3d 29 39 de 3d 51 9e d7 3d
       0.071985945 0.10743676 0.10850746 0.10528243
000040 31 da 9c 3d 9c f2 16 3e b7 90 79 3d 22 f6 1b 3e
       0.07658804 0.14740986 0.060929026 0.15230611
000050 cd 7e f2 3d d6 6e 03 3e 4f 71 17 3e 87 33 07 3e
       0.118405916 0.1283525 0.14789318 0.1320325
000060 c0 43 ba 3d 5b a0 b7 3d d6 bf d3 3d 84 cb e8 3d
       0.090949535 0.08966132 0.10339324 0.113669425
000070 1d 2a bf 3d b9 ed bd 3d 1d 1f 86 3d 88 d6 f2 3d
       0.09334204 0.092738576 0.06548903 0.11857325
000080 29 ba 09 3e 73 8b 10 3e 9b e3 aa 3d a3 94 25 3e
       0.1344992 0.14115696 0.083441935 0.16169982
000090 aa a2 ca 3d 3a b9 b3 3d b4 13 30 3e b1 3f 23 3e
       0.09894307 0.087755635 0.17195016 0.15942265
0000a0 ac d5 15 3e f7 16 f7 3d af ac e0 3d 22 bb 23 3e
       0.1463229 0.12064927 0.10970437 0.15989354
0000b0 45 b6 04 3e 50 de 17 3e b5 42 d0 3d b1 ea f4 3d
       0.12960155 0.14830899 0.10168973 0.11958826
0000c0 22 12 ff 3d 58 9f 05 3e 61 e7 80 3d 14 dd 25 3e
       0.124546304 0.13049066 0.06294132 0.16197616
0000d0 ac 1f ca 3d 63 b4 e2 3d 0f 74 17 3e a4 a7 53 3e
       0.09869322 0.11069562 0.14790367 0.20669419
0000e0 21 9a e5 3d 7f 02 ed 3d 9f b3 0a 3e 53 e3 cf 3d
       0.112110384 0.11572742 0.13545083 0.101507805
0000f0 14 6c 94 3d 0c 1d df 3d 7b 48 e7 3d d9 52 55 3e
       0.07247177 0.10894212 0.112931214 0.20832385

encoder.6.weight f4 [128, 64, 5]
000000 12 21 74 3d 2d a7 96 bc bc 18 dc bc dc b1 b2 3c
       0.05960185 -0.018390262 -0.026867263 0.021813326
000010 40 76 c3 bc 97 6e dc bc 3a bf c0 3c 0b 83 93 3b
       -0.023860097 -0.026908202 0.023528684 0.0045017055
000020 fe b3 1b bd 29 d4 20 3c da 77 19 3a b8 f4 7c bd
       -0.03801345 0.009816208 0.0005854346 -0.06175682
000030 ca 6a 60 bd 28 7d f0 bc 6d bc 0c bd 4e 9c 13 bd
       -0.054789342 -0.029356554 -0.034359384 -0.036037736
000040 aa 9c 06 3d 4a 5e 0a 3c 0e 20 9b bc 6e 56 31 3d
       0.03286425 0.008445332 -0.018936183 0.043295316
000050 80 f7 b9 bc c9 07 5a bd b4 5f b2 3c 4b 3f bb 3c
       -0.022701025 -0.05323008 0.02177415 0.022857329
000060 a8 e2 06 bd 92 7d 56 bd 16 70 76 bd d0 3d 30 bc
       -0.032931 -0.052365847 -0.060165487 -0.010756925
000070 e5 cc 52 3d c1 17 4e 3d 22 39 72 bd 67 90 e5 3b
       0.051464934 0.050315622 -0.059136517 0.0070057395
000080 28 f2 13 3d 4a 35 23 3d 78 50 65 bd 81 4e 31 3d
       0.03611961 0.039845742 -0.055984944 0.043287758
000090 fa ee 2d 3d 4c 79 a4 bc 92 17 02 bd b6 92 91 3d
       0.042464234 -0.02007737 -0.03176076 0.07108061
0000a0 0c 3d 2e 3c 85 9a ab bc c0 0b 25 bc 35 bf 8e bd
       0.010634672 -0.020947704 -0.010073602 -0.069700636
0000b0 07 bf 2e bd bc 2c af bc c6 ef 64 3d 60 a2 22 3d
       -0.042662647 -0.021383636 0.05589273 0.039705634
0000c0 ae 43 f0 bc dc f8 b4 3c 66 86 06 3d bf 53 17 bd
       -0.029329147 0.022091322 0.032843016 -0.0369451
0000d0 0b 06 05 bd f7 8f 0e 3d 53 41 0b 3c f7 e7 16 bd
       -0.032476466 0.034805264 0.008499461 -0.036842313
0000e0 a6 8a e1 3c 89 3c 2c 3d 8e f1 62 bd 2e 53 f9 3b
       0.027531933 0.04204992 -0.055406146 0.0076087927
0000f0 1c 6f 36 bd 43 cb 73 3a 1b 63 d4 bb ab ee 35 3d
       -0.044539556 0.0009300003 -0.006481541 0.044417065
000100 8d 33 78 bb 8b 16 bd bb 5e 6d 2b bd 63 1b 75 3b
       -0.0037872524 -0.0057705096 -0.041852348 0.0037400357
000110 39 2f d4 bb 2f 40 57 bd 9b 5a e4 3c 72 ca 3d 3d
       -0.006475356 -0.052551445 0.027875235 0.046335645
000120 1f 12 3e 3d ef 41 35 3d 28 94 71 3c f0 c5 0b bd
       0.046404 0.044252332 0.014744796 -0.034124315
000130 30 0e f7 3b df b0 98 3b 6c 5d e6 bc 64 ca 44 bd
       0.007539533 0.0046597566 -0.028120719 -0.048044577
000140 00 4e 61 3c 13 46 d1 bb f4 d0 64 3c f9 4c 63 3b
       0.013751507 -0.0063865273 0.013965834 0.003468333
000150 35 6b 5e bb f9 48 55 bd c5 ed 34 bd ff 89 76 bc
       -0.0033938412 -0.052071545 -0.044172067 -0.015047549
000160 8f 91 e1 bb 5b e7 eb 3b b9 6f ad 3b 5c 70 e2 3c
       -0.006883807 0.0071992106 0.0052928594 0.027641468
000170 69 b3 95 3b a5 4e 39 3c 98 36 2e bd 8a 8f ef 3b
       0.0045685065 0.011310254 -0.042532533 0.0073108124
000180 45 8b 3f bd 25 59 aa bb 60 f5 61 3d ac f7 8d ba
       -0.046763677 -0.005198615 0.05516565 -0.0010831258
000190 21 7d 03 3d ba 5c d6 bc 2d 46 48 3d 4e 26 09 bd
       0.032101754 -0.026167262 0.04889505 -0.033483796
0001a0 c6 46 3e bd 0e 00 1b 3c e9 e4 3c bd a0 02 95 bc
       -0.046454214 0.009460462 -0.046116743 -0.018189728
0001b0 32 a0 44 3c e8 8e c4 bc 08 0f ba 3c 44 47 d5 3c
       0.012001084 -0.023993924 0.022712246 0.026034959
0001c0 fb 68 77 bd 7a 60 11 bd 4f f3 09 3d 5d 45 ab 3c
       -0.06040285 -0.035492398 0.033679303 0.020907098
0001d0 d8 bb 44 3d 3b 9e 6a 3d 28 5d 51 bd c6 1a ec bc
       0.048030704 0.057279807 -0.05111423 -0.02882136
0001e0 63 f8 04 bd 8d 91 b4 bc 3d 4b cf bc 68 e2 1e bd
       -0.032463443 -0.02204206 -0.025304431 -0.038790137
0001f0 7e 62 78 b8 f6 22 3c 3d a5 6c e5 bc 44 30 8d bc
       -5.9219536e-05 0.04593178 -0.028005907 -0.017234929
000200 55 d9 b2 bc c8 72 a5 bc 11 95 d3 bc ab 91 26 bd
       -0.021832148 -0.020196334 -0.025827916 -0.040666264
000210 67 f7 96 bd 5a ed 0b bd 17 97 da bc f3 23 0c 3d
       -0.07371407 -0.034161903 -0.026683373 0.03421397
000220 10 98 1b bb 6b c4 6e bd 02 69 be 3a 1e ce 1b 3d
       -0.002374176 -0.058292788 0.0014527144 0.038038366
000230 31 ee 11 3d b4 5c 91 3c a5 26 41 bd d8 aa 22 3d
       0.035627548 0.0177444 -0.047155995 0.03971371
000240 fc 5d 29 3d 81 e4 e2 3c 6a 07 91 ba 28 ba 36 bd
       0.041349396 0.02769685 -0.0011064832 -0.044611126
000250 35 9e a5 3c a1 5e 44 bd 36 8f 0d bd ca 41 cc b9
       0.02021704 -0.047941808 -0.034560405 -0.0003895893
000260 46 76 74 3d 1a 43 fd bc 62 ad 42 bd 55 e9 6b 3d
       0.059683107 -0.030915786 -0.047528632 0.05759557
000270 bf 4a ce bc 1d de 14 bd 51 9e 93 3c 2d 52 2f bd
       -0.025182126 -0.036344636 0.018019827 -0.04280298
000280 15 f6 bb 3c ee dd 53 bc 4f 5e f9 bc da 15 8e 3c
       0.02294449 -0.01293133 -0.030440478 0.017344404
000290 3e 89 9d 3c aa 74 08 bc d6 72 33 3d 77 7e 7b b9
       0.019230481 -0.008328596 0.043810688 -0.00023984337
0002a0 57 92 3b 3d 13 57 13 3c e3 b5 a8 3c ae c6 c9 bc
       0.045793857 0.008992928 0.020594543 -0.02463087
0002b0 d8 45 cb bc 6d cc 84 bb 3e fa 0b 3a f9 47 79 bd
       -0.024813578 -0.0040526898 0.0005339718 -0.060859654
0002c0 78 a3 ab bc 4e 41 e7 3c 91 02 56 3c 9b 1c eb b7
       -0.020951971 0.028229382 0.013062135 -2.8027504e-05
0002d0 4e 17 fc bc 67 82 74 3c ff 88 50 bc e6 bc 77 3c
       -0.030772831 0.0149236685 -0.012727975 0.0151207205
0002e0 e6 3b 15 3c db 10 46 3d e9 89 96 3d cb 2e 42 bd
       0.009108519 0.04835592 0.07350523 -0.047407907
0002f0 3d ab 59 bd 6a f3 5e 3d f0 ae 2f bc 6c bc ee 3c
       -0.05314182 0.054431356 -0.010722861 0.02914258
000300 9f 28 fb 3c 7d 88 5e bc 69 20 4f bd 7b 1b 29 3d
       0.030659018 -0.013582346 -0.050568018 0.041285973
000310 6e bf 1a b9 6c b7 f7 bb 83 88 10 3c 3f f2 83 bc
       -0.00014757898 -0.0075597074 0.008821609 -0.016106723
000320 ba b8 17 bb e7 05 64 bd 4a f7 ec 3c 0a 3d f1 bb
       -0.0023150877 -0.05566969 0.02892651 -0.0073620128
000330 a7 ef 38 3d 18 49 a6 bb bf bb 66 bd 81 6e b8 bc
       0.045150425 -0.0050746314 -0.056331392 -0.02251363
000340 1c 15 23 bc 37 72 07 3d c5 4e 35 bd 89 b9 8e 3c
       -0.009953763 0.03306791 -0.044264574 0.017422454
000350 d5 e0 05 3d 82 4e 1d 3c 4d 28 43 3d 32 fd 97 3d
       0.03268512 0.009601237 0.047645856 0.0742134
000360 9a 69 50 3c eb d5 ca 3c 00 e7 c3 bc ab 85 09 bc
       0.01272049 0.024760207 -0.02391386 -0.008393685
000370 e2 7d de bb 97 86 12 3d 20 0a 7e 39 fd 45 38 3d
       -0.0067899087 0.035772886 0.000242271 0.04498862
000380 9b 4c 11 3d 68 e6 ee bc 56 3c 42 bd c3 c4 b3 3b
       0.035473447 -0.0291626 -0.047420822 0.0054861023
000390 e9 35 3c bd ec 60 cf bc 43 bb 19 3c 55 c8 19 bd
       -0.04594985 -0.02531477 0.009383026 -0.037544567
0003a0 64 79 24 bd 22 34 c2 bb 08 8c c8 3c 24 94 42 bc
       -0.04015483 -0.005926625 0.024480835 -0.01187614
0003b0 5a 1e 8d 3c 33 0d 47 3c b2 b7 fc 3c b5 be 9e bc
       0.017226387 0.012149143 0.030849312 -0.019378046
0003c0 7b f1 78 3d d5 f4 0a ba 7c 20 5c bc 67 14 c4 bc
       0.06077717 -0.0005300765 -0.013435479 -0.02393551
0003d0 d2 49 4f 3d ba 27 ad bc 56 42 5f bd 91 22 1e bd
       0.05060751 -0.021137107 -0.054506622 -0.038607184
0003e0 cd 88 f6 3c d8 ee c9 bc 2e 01 1f 3c e7 45 ca 3c
       0.030094529 -0.024650022 0.009704871 0.024691535
0003f0 b0 97 33 bd 73 eb 5f bd 7f a8 8c bd eb 99 71 3d
       -0.043845832 -0.0546679 -0.068680756 0.05898468

encoder.6.bias f4 [128]
000000 ad c3 d7 bc 6e 99 24 3d 72 1f 41 bd 89 3f 67 bd
       -0.026338423 0.040185384 -0.04714913 -0.056457076
000010 b1 79 2a bd c4 ba 9c ba bb 33 7e bd f9 1e 44 bd
       -0.04161996 -0.0011957516 -0.062061053 -0.0478811
000020 d8 ee 9a 3c ea 82 4a 3d 21 a6 6d bc 46 da 86 3c
       0.018912718 0.049441256 -0.01450494 0.016461503
000030 97 7b 1e 3d 3d 78 60 3c e1 5a 31 bd 8a 3f 7f bd
       0.038692083 0.013700542 -0.04329956 -0.062316455
000040 18 31 7d bc 28 27 32 bd d3 5f 24 bd 99 63 25 bd
       -0.015453599 -0.043494374 -0.040130448 -0.040378187
000050 98 b9 12 bd 62 ca 3c bd 63 05 86 bc 92 e5 15 bd
       -0.035821527 -0.046091445 -0.01635999 -0.03659589
000060 69 d8 b8 3a 8c 50 53 3c 1a 9e bd bb b6 2d 50 3a
       0.0014102581 0.012897622 -0.0057866694 0.0007941382
000070 44 0c 8e 3d f4 9c 54 bd 1e 33 76 bd cb f4 8c bc
       0.06935933 -0.051907495 -0.060107343 -0.01720657
000080 c0 7d 4c bb c7 4d c1 bb 9b 1b c8 bc c0 07 c6 3c
       -0.0031202883 -0.0058991644 -0.024427226 0.024173617
000090 c8 55 36 bd 49 a3 ad 3c 85 a0 23 ba ad 6b 4c bd
       -0.0445154 0.021196024 -0.0006241876 -0.049907375
0000a0 f6 f1 24 3c c0 01 c0 bc 4e 66 4a bd 60 e4 d9 3c
       0.010067454 -0.023438334 -0.04941397 0.026598155
0000b0 dd 4f b7 bc e8 00 0a 3d d9 20 10 bd 72 81 51 bd
       -0.022376949 0.03369227 -0.035187576 -0.05114884
0000c0 b6 b5 e9 3c 3b 53 86 3c df da 93 bc 89 6a 20 3d
       0.02852903 0.01639711 -0.018048702 0.0391641
0000d0 29 cc 74 bd 66 fd d1 bc 9f 2c d6 bc 44 61 c0 3c
       -0.059765015 -0.025633525 -0.026144324 0.02348388
0000e0 30 f7 2f 3d 63 93 4d bd 19 f9 1a bd 0d 96 9b bc
       0.042960346 -0.050189387 -0.037835214 -0.018992448
0000f0 2d 4f f2 bc fa 77 35 bd 9d 12 9f 3b ad d9 88 bc
       -0.02957877 -0.04430387 0.004854514 -0.016705358
000100 e2 33 8a bd a2 a7 a1 3c a9 11 bc bc d8 0e dd bc
       -0.06748177 0.019733254 -0.02295764 -0.026984617
000110 ca 02 66 bd b4 21 00 bd 2e 30 82 3c 18 d8 0b bc
       -0.056155004 -0.03128214 0.015892114 -0.0085354075
000120 bf a8 db 3c 60 be 91 3c 25 9c 06 bd 6b 8a ea bc
       0.026813863 0.017790973 -0.032863755 -0.028630456
000130 7b cd 18 bd 47 3c d7 3c 3b da 0d 3d b7 ef 0a bd
       -0.037305336 0.02627386 0.03463195 -0.033920016
000140 39 1f 6c 3d 43 78 30 bc 1c af bc bc 18 a2 ea 3b
       0.057646964 -0.01077086 -0.023032717 0.0071604364
000150 a6 14 2a 3d 45 42 10 bd c9 c9 08 3d ab 62 44 3d
       0.041523598 -0.03521945 0.033395562 0.04794566
000160 cd 5f 0f bd 2e 91 83 bc 31 aa 18 bd f5 78 04 bd
       -0.035003472 -0.016060438 -0.037271682 -0.032341916
000170 e7 af dd bc 61 3a e4 bc ac d4 d0 bc 3f 2e 01 bd
       -0.027061416 -0.027859868 -0.025492035 -0.031538244
000180 35 42 c8 3c 4c 63 59 39 33 f5 58 bc cb 0c 59 bd
       0.024445632 0.00020731724 -0.013242054 -0.052990716
000190 cd 73 26 bd d3 36 d4 bc 13 6f 26 3d 42 6d 51 3c
       -0.04063778 -0.025905048 0.040633272 0.012782397
0001a0 09 76 b8 3c d4 4e 9f bc a4 4b 1e bd 23 09 39 3d
       0.022517221 -0.019446768 -0.038646355 0.04517473
0001b0 1a af 38 39 4e 54 47 3c e7 8b 59 bd 41 68 cc 3c
       0.00017612838 0.012166096 -0.053111937 0.024952056
0001c0 a6 73 80 bd b2 f7 0c bd b8 62 6b 3c 39 0e 52 3b
       -0.06272058 -0.03441591 0.014366798 0.0032051934
0001d0 e0 53 18 3d 28 a4 e9 3a 2f c2 0d bd bc 9b 8c bc
       0.037189364 0.0017825412 -0.034609016 -0.017164104
0001e0 95 f0 2e 3c 65 c1 12 3c 68 49 95 3c 4f 1b 0f 3d
       0.010677476 0.008957242 0.01822348 0.034938153
0001f0 49 d7 46 3d c6 0e de 3b 01 64 af bc 70 f0 44 bb
       0.048545156 0.0067766635 -0.02140999 -0.0030050538

encoder.8.weight f4 [128]
000000 3e 20 83 3f 2b 9a 80 3f 02 29 81 3f 26 56 7f 3f
       1.0244215 1.0047048 1.009064 0.9974083
000010 95 40 7b 3f 46 7e 80 3f 7b f9 81 3f 8b 8e 80 3f
       0.9814542 1.0038536 1.015426 1.0043501
000020 3c bd 81 3f 38 7b 81 3f 22 45 7d 3f 2c 03 81 3f
       1.0135875 1.0115728 0.98933613 1.0079093
000030 4e 57 80 3f 91 6f 7f 3f 79 98 7d 3f 6e 80 82 3f
       1.0026643 0.9977961 0.9906078 1.0195444
000040 f4 0f 7d 3f 03 34 80 3f cf 2b 82 3f de 73 80 3f
       0.9885247 1.0015873 1.0169619 1.003536
000050 4a 68 81 3f 62 44 80 3f 46 b0 7c 3f c3 0d 7d 3f
       1.0109951 1.0020869 0.9870647 0.98849124
000060 f6 90 7e 3f 39 22 7f 3f c2 62 7d 3f 11 44 7e 3f
       0.9943994 0.99661595 0.9897882 0.9932261
000070 ad e9 80 3f ae 08 82 3f 77 f6 7d 3f a7 8e 7f 3f
       1.0071312 1.0158899 0.992042 0.99827045
000080 36 13 80 3f 6b 5f 7e 3f 93 8f 7b 3f ac de 7b 3f
       1.0005863 0.99364346 0.9826595 0.98386645
000090 9b 0e 81 3f d5 92 81 3f c0 d9 80 3f 9a 20 81 3f
       1.0082582 1.0122935 1.0066452 1.0088074
0000a0 97 ca 7f 3f e9 cc 7e 3f f2 2a 80 3f c3 c8 80 3f
       0.999185 0.9953142 1.0013106 1.0061268
0000b0 ab ca 80 3f 54 d5 80 3f 20 c4 81 3f 70 d2 7d 3f
       1.0061849 1.0065103 1.0137978 0.9914923
0000c0 49 81 7f 3f 3e 6d 80 3f 7b 9e 7c 3f 84 0d 80 3f
       0.9980665 1.0033338 0.9867932 1.0004125
0000d0 07 0e 7d 3f 99 e7 7e 3f c8 94 7f 3f 2e 4b 83 3f
       0.9884953 0.9957214 0.998364 1.0257318
0000e0 74 61 80 3f 7c 3d 81 3f 65 6a 81 3f 77 4e 7d 3f
       1.002974 1.0096889 1.0110594 0.9894785
0000f0 19 e6 7f 3f bd df 7d 3f 00 d8 80 3f a5 32 81 3f
       0.99960476 0.9916952 1.0065918 1.009358
000100 a8 67 7f 3f 65 39 7f 3f 1e 76 7b 3f 3b 7d 7f 3f
       0.9976754 0.9969695 0.9822711 0.9980046
000110 0c f9 7e 3f 08 27 7e 3f 8a 07 7e 3f d6 7d 7c 3f
       0.99598765 0.99278307 0.99230254 0.9862951
000120 f1 6f 82 3f 2f 16 81 3f cd d6 7e 3f 0a 65 80 3f
       1.0190412 1.0084895 0.9954651 1.0030835
000130 ef f6 7d 3f f1 14 7c 3f fe 7e 82 3f 0c 70 7f 3f
       0.99204916 0.98469454 1.0195005 0.99780345
000140 e2 7a 80 3f 12 3d 80 3f 04 09 7d 3f ba 68 80 3f
       1.0037501 1.0018637 0.9884188 1.003196
000150 a1 7a 80 3f a6 1a 80 3f 13 40 7f 3f 70 6e 7f 3f
       1.0037423 1.0008132 0.99707144 0.9977789
000160 31 20 80 3f e6 92 81 3f ed 14 80 3f c0 c6 7f 3f
       1.0009824 1.0122955 1.0006386 0.99912643
000170 a3 da 7a 3f 2f 22 80 3f dc f3 82 3f 64 44 80 3f
       0.97989863 1.0010432 1.023067 1.0020871
000180 1a dd 7f 3f e5 ee 80 3f bc 25 81 3f ba 96 7c 3f
       0.9994675 1.0072905 1.0089641 0.9866749
000190 f2 7d 7d 3f f2 73 7f 3f 12 6a 80 3f 41 a2 7e 3f
       0.990203 0.99786294 1.003237 0.9946633
0001a0 6c 4b 7e 3f 68 e1 7d 3f 66 ee 7e 3f 06 e7 80 3f
       0.99333835 0.9917207 0.9958252 1.0070503
0001b0 b8 de 7e 3f 25 b7 81 3f 8a 08 7f 3f 83 27 7c 3f
       0.9955859 1.0134016 0.99622405 0.9849779
0001c0 0c 0d 83 3f 78 32 7f 3f 9e 49 81 3f 85 c1 7e 3f
       1.0238357 0.99686384 1.0100591 0.9951404
0001d0 ab 0c 81 3f 3f d4 7d 3f a3 b4 80 3f 55 64 81 3f
       1.0081991 0.99151987 1.0055126 1.0108744
0001e0 0c 76 80 3f aa cb 7e 3f a2 27 82 3f cf 2a 80 3f
       1.0036025 0.99529517 1.0168345 1.0013064
0001f0 e7 35 80 3f ac e8 7f 3f 65 85 81 3f df 9d 7a 3f
       1.001645 0.99964404 1.0118834 0.9789714

encoder.8.bias f4 [128]
000000 61 c8 73 3c dd b9 af 3b a1 8b 46 3c dd 5c 3d bc
       0.014879317 0.005362733 0.012118251 -0.011557785
000010 3d 84 f7 3b 7e 8f 35 3a ec b2 e2 ba 9d 77 08 bc
       0.007553606 0.0006925984 -0.0017295755 -0.008329299
000020 d3 cb 8e bc b9 65 19 3c e2 4f 84 bc c7 72 6c 39
       -0.017431175 0.0093626315 -0.016151372 0.00022549472
000030 01 29 37 3c 3c 97 8a bb 0e 6f 25 bc ad 17 5c bb
       0.01117921 -0.0042294543 -0.010097278 -0.0033583448
000040 e1 16 11 bc c0 16 a6 bb 47 16 14 bc 16 7e 10 bd
       -0.008855552 -0.00506863 -0.009038514 -0.035276495
000050 91 a2 33 bc b7 9d 16 3c ea d7 40 bc 80 e3 2a 3c
       -0.010964052 0.009192876 -0.011770228 0.010430217
000060 26 07 ed bb 42 60 41 bc 24 2d 2c bc b8 a5 7b 3a
       -0.007233518 -0.011802735 -0.010508809 0.0009599584
000070 5b a7 fc bc a0 a8 18 3c f7 8f f0 3b c8 40 92 3a
       -0.03084152 0.009317547 0.0073413807 0.0011158222
000080 03 21 2b 3c dc f8 60 3c a6 97 01 3b e3 99 85 3c
       0.010444882 0.013731208 0.0019774227 0.01630873
000090 8e 06 c9 3c 8b 08 34 3c 93 0d ce bc a8 43 ad bc
       0.024539258 0.010988365 -0.025152957 -0.021150425
0000a0 bd 6b 9e bc 79 40 52 3c c6 c1 56 3c 9c 65 73 ba
       -0.019338483 0.012832754 0.013107723 -0.00092848553
0000b0 92 04 20 3c ca f3 af 3a b0 a1 4e bc 46 a0 17 bc
       0.009766715 0.0013424095 -0.0126117915 -0.009254521
0000c0 92 4b 6b bc a4 2c 20 3c 06 d0 06 3c cc 4d 9d 3c
       -0.014361279 0.009776268 0.008228308 0.019202136
0000d0 63 3f 6f 3c ba aa 07 3c 69 1d b1 3b 50 1c 65 3c
       0.014602515 0.0082804505 0.0054051173 0.013983801
0000e0 80 2a 05 36 e1 a7 0c 3c ac d8 f9 3b a7 ce 44 3c
       1.9843283e-06 0.008584947 0.0076247063 0.01201216
0000f0 8b 36 1f 3c d9 d4 e0 bb 3e fa 88 3b 79 a3 92 bb
       0.009717594 -0.006861311 0.004180222 -0.004475054
000100 1f 7d a0 bb 84 34 a0 3a ee 82 87 3c 32 87 7b bc
       -0.004897728 0.0012222682 0.016541924 -0.015352057
000110 5c af a5 38 d5 34 40 3c fe df 02 bc 50 ca 60 bc
       7.900476e-05 0.011731346 -0.007987974 -0.01372011
000120 b5 91 48 3c 77 8b 95 3c d0 05 4b 3c 2a d5 0c bc
       0.0122417705 0.018254979 0.0123915225 -0.008595744
000130 51 59 e4 3b 09 21 35 bc dd 01 b7 b8 11 39 9a 3b
       0.006968655 -0.0110552395 -8.726467e-05 0.00470651
000140 2d ea 4d bc fc fd 6f 3b 1c 80 09 3c e0 e0 9f bc
       -0.012568039 0.0036619892 0.00839236 -0.019516408
000150 13 b1 f4 bb 10 6a 69 3c bb 94 bd 3b cc fa b3 ba
       -0.007467398 0.014246479 0.0057855523 -0.001373136
000160 1c b1 0d bc f8 9c 92 3c 0a a3 34 bc da f1 c5 3a
       -0.008648183 0.017897114 -0.0110252 0.0015101985
000170 b5 98 ee bb bc 4f 47 bc 37 2e 2b 3c 58 54 01 bc
       -0.0072813877 -0.012165006 0.01044803 -0.007893644
000180 c5 06 ba 3c 96 19 ee bb 9b 6a 46 3c 03 03 0f bc
       0.022708306 -0.0072662337 0.012110378 -0.008728745
000190 26 4a 8a bb ea 37 9a bb c7 cc 5d 3a b5 b7 4a 3c
       -0.004220265 -0.0047063725 0.0008460995 0.012372901
0001a0 8c 4e f6 bb 30 dd 83 3c b2 7f ed 3b 68 35 55 bc
       -0.0075166877 0.016096681 0.0072478885 -0.013013221
0001b0 6c 91 a5 3c d0 e4 2e 3c 49 ba d2 3c 25 ac 52 bc
       0.020210944 0.01067467 0.025723593 -0.012858425
0001c0 17 9b 8e 3c 51 d7 07 3c e7 ec 01 3d 97 0c 4f bc
       0.017407937 0.0082910815 0.03172007 -0.012637279
0001d0 d9 c0 4d 3c 90 9f 75 bb 6f cd 13 bb 62 c9 d6 3b
       0.0125581855 -0.003747914 -0.0022552868 0.0065547684
0001e0 25 68 ac 3c ad 82 5d 3b 15 51 d9 bb e1 cc e1 3c
       0.021045754 0.0033799813 -0.00663198 0.027563514
0001f0 03 3d b0 bb 51 13 c6 3a b4 c3 90 bc 41 04 02 bc
       -0.005378367 0.0015111958 -0.017671444 -0.0079355845

encoder.8.running_mean f4 [128]
000000 8a 1e 6a 3e 54 10 86 3e 59 32 64 3e 38 ee 50 3e
       0.22863212 0.26184332 0.22284831 0.20403373
000010 48 b1 85 3e ab 01 56 3e 13 cf 37 3e 53 74 79 3e
       0.26111817 0.20899074 0.17950086 0.2436078
000020 a9 b8 79 3e 8b 50 91 3e 3e 06 5a 3e 5a fc 53 3e
       0.24386849 0.28381762 0.21291444 0.20701733
000030 08 ff 81 3e 9d 95 88 3e ed 35 71 3e 20 17 5f 3e
       0.25389886 0.26676646 0.23555727 0.21786165
000040 f0 52 78 3e 49 83 4b 3e 5e 40 57 3e 62 57 77 3e
       0.24250388 0.198743 0.21020648 0.24154428
000050 34 ad 5a 3e d0 d4 51 3e 4b 99 72 3e 0a c3 61 3e
       0.21355134 0.20491338 0.23691289 0.22047058
000060 bc 7e 5d 3e dc 0d 8d 3e 9c 04 83 3e a5 ce 72 3e
       0.21630377 0.27549636 0.25589454 0.23711641
000070 1b 97 8e 3e 52 a0 87 3e ad b5 41 3e 6d ce 60 3e
       0.2784966 0.26489502 0.1891696 0.21953745
000080 4d 71 72 3e 89 47 84 3e 4b b4 6f 3e 28 19 8d 3e
       0.23676033 0.25835827 0.2340862 0.27558255
000090 f4 93 62 3e af 87 7e 3e 16 12 74 3e 40 ba 73 3e
       0.22126752 0.24856447 0.23835024 0.23801517
0000a0 18 50 81 3e 0d 1d 6e 3e fd e4 4c 3e bf f9 89 3e
       0.2525642 0.2325327 0.20009227 0.26948354
0000b0 ab 18 6c 3e ef 09 97 3e 75 f1 5f 3e 69 11 7b 3e
       0.23056285 0.29499766 0.21869452 0.2451836
0000c0 5e 3b 7a 3e 03 bc 87 3e 54 16 5d 3e f9 0b 96 3e
       0.2443671 0.2651063 0.21590549 0.2930601
0000d0 2f ae 5b 3e f6 3f 81 3e 6f 64 66 3e 70 2f 82 3e
       0.21453165 0.2524411 0.2249925 0.25426817
0000e0 5d e1 81 3e 6b 82 58 3e 08 89 4c 3e d0 41 72 3e
       0.2536725 0.211435 0.19974148 0.23657918
0000f0 72 f2 58 3e fa cc 68 3e e0 07 84 3e af fe 57 3e
       0.21186236 0.22734442 0.25787258 0.21093248
000100 44 bb 2b 3e 11 ba 5f 3e d5 9f 6a 3e b0 fd 64 3e
       0.16770655 0.21848322 0.22912534 0.22362399
000110 50 c5 47 3e 2b e2 67 3e 29 8d 78 3e 6e d6 96 3e
       0.19508862 0.2264487 0.24272598 0.29460472
000120 86 01 69 3e 38 d6 90 3e e6 5f 68 3e fe 4a 75 3e
       0.22754487 0.28288436 0.22692832 0.23954388
000130 d9 61 71 3e e3 69 71 3e 65 db 84 3e fa 47 5c 3e
       0.23572482 0.23575549 0.25948635 0.21511832
000140 d2 a7 80 3e f0 7c 85 3e 03 2d 56 3e 3e 8e 70 3e
       0.25128037 0.26071882 0.20915608 0.23491761
000150 08 40 82 3e 79 5f 75 3e bd c7 8c 3e 2c 41 7c 3e
       0.25439477 0.23962201 0.27496138 0.24634236
000160 34 d8 48 3e 3b 8e 81 3e 48 5d 4c 3e f7 0a 6c 3e
       0.19613725 0.25303826 0.19957459 0.23051058
000170 7a 90 5d 3e 7c 06 86 3e 04 8e 69 3e f5 ae 53 3e
       0.21637145 0.26176822 0.22808081 0.2067221
000180 17 5a 77 3e 87 32 87 3e 94 ff 87 3e e8 d0 81 3e
       0.2415546 0.26405737 0.26562178 0.25354695
000190 b6 d7 56 3e 78 5e 6b 3e 98 d4 8f 3e 43 6a 84 3e
       0.20980725 0.22985256 0.28091884 0.2586232
0001a0 cc 8d 7e 3e a1 01 73 3e a1 bd 7a 3e 7d 0b 87 3e
       0.24858779 0.2373109 0.244864 0.26375952
0001b0 4a 12 8f 3e ec 54 6c 3e 06 15 8b 3e d0 84 90 3e
       0.2794364 0.2307927 0.27164477 0.28226328
0001c0 e8 2f 67 3e 26 fc 60 3e 59 35 79 3e 5d c6 7e 3e
       0.22576869 0.21971187 0.24336757 0.24880357
0001d0 a8 d7 8e 3e db e4 63 3e c8 6d 65 3e bf 0d 89 3e
       0.27898908 0.2225527 0.2240516 0.267683
0001e0 6f 58 6d 3e 9e e5 62 3e 95 9b 8d 3e a3 67 7f 3e
       0.23178266 0.22157905 0.27657762 0.24941878
0001f0 91 e0 81 3e 03 57 7e 3e d5 ac 83 3e 9e b0 7e 3e
       0.25366643 0.2483788 0.25717798 0.24872062
